best_model_acc_2convL_2FCL_9178.pt (torch, 821796 bytes, 8 tensors)

weight f4 [32, 1, 5, 5]
000000 8b 51 0c bd 07 08 7c bd 08 52 70 be 78 a9 73 be
       -0.034257453 -0.061531093 -0.23468792 -0.23795116
000010 63 6c 5f bd 94 f1 7d 3e 67 59 81 3d cb e0 63 3e
       -0.054546725 0.24799186 0.0631588 0.2225372
000020 52 f0 d0 bb 75 f7 53 3e 46 0c eb bc a1 b2 b6 bd
       -0.0063763047 0.20699866 -0.028692376 -0.089207895
000030 bb 7e 01 be f3 f4 3f be e7 8b 3c be 4a 41 ee 3c
       -0.12646 -0.18745784 -0.18412744 0.029083867
000040 ad 6e 80 ba 49 0a c6 3d b7 7f 98 bd f7 ba 26 bd
       -0.0009798609 0.096699305 -0.07446235 -0.040705647
000050 e4 14 97 3d 98 08 ea 3d 96 6b ee 3d 8e c0 5d 3e
       0.073770314 0.114274204 0.11641614 0.21655485
000060 21 ca 9f 3d ff 3a b1 3d 9e 59 dd 3e 4e 3e f8 be
       0.07802225 0.08653831 0.43232435 -0.48485035
000070 f8 90 67 be 6b 83 c0 bd b6 9c 1c be e6 62 c0 3e
       -0.22613895 -0.09400066 -0.15294155 0.37575454
000080 da 27 85 bd 85 18 89 be b5 a0 67 be 7f ad 9e be
       -0.06501742 -0.2677652 -0.22619899 -0.30991742
000090 e3 65 c0 bd 47 26 aa 3e 53 01 23 3e f7 ba 88 3e
       -0.09394433 0.33232328 0.15918474 0.26705143
0000a0 45 88 5c be 74 e8 ec bd 55 66 66 3e 11 a3 63 be
       -0.21536358 -0.115677744 0.22499974 -0.22230174
0000b0 68 eb 0e be c6 e9 89 be ac e3 e8 bc d5 4a 84 3e
       -0.13956988 -0.26936167 -0.028428875 0.25838342
0000c0 fe e2 ea ba 83 07 37 bd 37 a1 8c 3e e3 87 aa 3e
       -0.0017920432 -0.044684898 0.27466747 0.33306798
0000d0 9f 5e 47 3e 34 43 bb 3d fc 35 ce 3d 2d f1 ff bd
       0.19469689 0.09143677 0.100688905 -0.124971725
0000e0 13 bf 31 bd 34 25 8a be 88 16 b8 be b0 4c c5 bd
       -0.043395113 -0.2698151 -0.3595469 -0.096337676
0000f0 2f a0 a3 3d a7 44 49 3d 08 a9 79 be 44 5c 38 be
       0.07989537 0.049137738 -0.24380887 -0.18003947
000100 a5 5f f8 b9 af df 85 bd d3 bb ab 3d a4 b8 54 3e
       -0.00047373507 -0.06536805 0.08385434 0.2077356
000110 21 66 45 3e 09 af 13 3e 75 2b a7 be 0d f1 81 be
       0.1927724 0.1442224 -0.32650343 -0.2537922
000120 0a 4d 2c 3e 31 c0 3f 3e c3 0c 0a 3e 70 02 d8 3e
       0.16826263 0.18725659 0.1348143 0.4218936
000130 2a 1e 8e 3a bf ee 4e be 60 37 00 bd 3e 33 5f be
       0.001084273 -0.20208262 -0.03130281 -0.21796891
000140 bf 9b 61 be 05 80 82 3e 03 f8 23 3e 4e 8a aa be
       -0.22032069 0.25488296 0.16012578 -0.33308643
000150 00 df 34 be 58 f6 ac bd 6f 07 b4 bc 4e f6 d2 bc
       -0.17663193 -0.08445424 -0.0219762 -0.025752213
000160 8f 93 45 3e 7e 74 2b be 01 2d 01 3e 3e fe b4 3d
       0.1929457 -0.16743657 0.12614824 0.08837555
000170 4d 32 d5 3d 77 6a 83 3d 74 fd 80 be 46 e6 80 be
       0.10409985 0.06416791 -0.2519337 -0.25175685
000180 52 6d 11 3d bf 32 1c bc 40 43 88 bd b3 56 3d be
       0.035504647 -0.009533583 -0.06653452 -0.18490104
000190 62 1e e4 3e 8d 99 c3 3e 8e 8d 7f bd 3d ac ad be
       0.4455443 0.38203087 -0.062390856 -0.3392047
0001a0 b0 63 ae be 7b 42 d6 3d f7 3e d8 bd 43 05 59 be
       -0.3406043 0.10461899 -0.105588846 -0.21193413
0001b0 0f 16 14 3c f0 90 74 3e c8 c0 af be 1a 34 61 bd
       0.009038462 0.23883414 -0.34326768 -0.05498133
0001c0 d9 86 3d be 89 65 99 3e 0c a6 a1 3e 5b 6d 96 be
       -0.18508472 0.29960278 0.31571996 -0.29380307
0001d0 82 26 a5 bd 50 14 da 3d 6f 61 24 3e 20 ff 81 3d
       -0.080639854 0.106484056 0.16052793 0.06347489
0001e0 0b 4f 64 3e 16 0d 97 3c ef 5c 35 bc fd ad 09 3e
       0.22295777 0.018438857 -0.01106952 0.13445278
0001f0 ef 5a c0 be 2f 10 cd 3b c8 fa 91 bd e4 36 11 be
       -0.37569377 0.0062580328 -0.07127911 -0.14181095
000200 83 e6 ad bc a0 77 8a be ee 20 6f 3d 08 c1 82 bd
       -0.02122808 -0.27044392 0.058381014 -0.06384474
000210 ec 30 41 be a5 de 2d 3c b1 b6 94 3e ee 87 a3 bd
       -0.18866318 0.010612165 0.29045632 -0.07984911
000220 c8 7b 7d bd 98 2b aa 3c ef 75 8c 3e cd 20 8d 3e
       -0.061885625 0.02077274 0.27433726 0.27564088
000230 43 d9 33 3e 87 8a 42 3e 2a 08 2c 3e 59 fb c1 3d
       0.17563348 0.18998156 0.1679999 0.09471769
000240 02 38 c4 be 12 ce 6f bd 06 04 e1 3d a2 cd fb bc
       -0.3832398 -0.058546133 0.109870955 -0.030737702
000250 bb 83 84 be d3 85 4f be 1d a1 83 be 31 83 80 3d
       -0.25881752 -0.20265894 -0.25708857 0.06275023
000260 65 1a 9c bd 48 3b 81 3e de 02 59 3e 58 c3 80 be
       -0.07622222 0.2524054 0.211925 -0.25149035
000270 33 ac a2 3e 65 6c 9e be 74 c0 29 bc 4b 6a 7e bd
       0.31772003 -0.30942073 -0.010360826 -0.062113088
000280 c2 85 b9 bc 67 81 02 3d 4d 04 03 be 77 00 a1 bd
       -0.022646789 0.03186169 -0.1279461 -0.07861417
000290 c6 c0 73 bd c3 63 36 3e bf 72 2d be 88 b9 37 3e
       -0.059510015 0.17811494 -0.16938303 0.17941868
0002a0 d7 2e 3f be 50 96 22 bd 65 0e bd 3e 12 65 81 be
       -0.18670212 -0.03969413 0.36925045 -0.25272423
0002b0 7b 64 c5 3e b2 00 68 3d 2b 60 ec bd c3 a8 8c 3d
       0.38553223 0.056641288 -0.1154178 0.06868126
0002c0 2a fa d3 3c 3b f4 a4 3d 10 04 9b 3e 76 1f 66 be
       0.025876123 0.08054396 0.30276537 -0.22472939
0002d0 63 72 a0 bd 01 71 4a 3d fc 68 cb 3e 69 fe 81 3e
       -0.078343175 0.049424175 0.39728534 0.25389412
0002e0 f8 3c 8b 3e 8f 1b c7 3d 21 1e c5 bb 91 3b e0 bd
       0.27194953 0.09722053 -0.0060155545 -0.109488614
0002f0 95 75 34 be 68 15 1d 3e 81 e4 3e 3e 6e c3 a3 3d
       -0.17622979 0.15340197 0.18641855 0.0799626
000300 26 17 3d be 4f 82 ab bd f6 28 57 be 95 fa 11 be
       -0.18465862 -0.08374464 -0.21011719 -0.14255746
000310 68 05 18 be c0 6e ae 3a 81 85 cc be d5 ed 18 be
       -0.14845812 0.0013308153 -0.39945605 -0.14934476
000320 b1 9f 8b 3e 9d cf 90 3e 1c 78 c1 be 3f cd f8 be
       0.27270272 0.28283396 -0.3778695 -0.4859409
000330 9c c3 85 be db 96 a9 3d 5f 68 89 3c 8d 85 f7 3e
       -0.261258 0.082807265 0.0167734 0.4834408
000340 18 0b af 3e 4c 65 8e 3d 29 78 d1 bc 69 2c 86 be
       0.3418815 0.069529146 -0.025569992 -0.26205757
000350 2c bd 1c be cb bf e2 3c 80 82 7d 3e 2c 8c 72 3e
       -0.15306538 0.027679345 0.24756813 0.23686284
000360 fe 30 0f be b5 c4 81 bd 9a 65 0d 3d 92 20 63 be
       -0.13983533 -0.06336347 0.034520723 -0.22180393
000370 ab 4b 7f be 94 42 29 3e b3 e0 3a 3e 93 19 75 3d
       -0.24931209 0.16529304 0.18249778 0.059838843
000380 94 2a cf bd 16 fe fc 3d 40 17 e8 bd 46 fe d8 bd
       -0.10115543 0.123531505 -0.113325596 -0.10595374
000390 2a 42 83 3c 5d 65 0f bd 14 1b 87 3c 4e 62 44 3e
       0.01602276 -0.035008777 0.016492404 0.19178125
0003a0 74 60 19 be b0 a4 63 3e 93 3c ab 3d 4a ea 00 be
       -0.149782 0.22230792 0.08361163 -0.12589374
0003b0 95 4d 60 3e ee 41 b0 be 39 cc df bc 3e 7e f6 3c
       0.21904595 -0.344253 -0.02731906 0.030089494
0003c0 ee 74 35 bc 79 a0 b0 3e 8b 11 5f be e6 2b aa bd
       -0.0110752415 0.3449743 -0.21784036 -0.08309154
0003d0 d1 61 07 3e bd 3f 8b be de a9 b6 3e 43 8f 1f be
       0.13220908 -0.27197066 0.35676473 -0.15581994
0003e0 d2 83 92 bd ef 91 74 3d 95 62 40 be 3b 1f d5 3d
       -0.07154049 0.059709486 -0.18787606 0.10406347
0003f0 da 72 6c 3e 25 4a 9f bc 5c 7d 62 be b8 46 58 be
       0.23090687 -0.019444535 -0.22118133 -0.21120727

bias f4 [32]
000000 c2 bb 2c be 39 24 2e bf 42 67 fc bd 63 98 18 bf
       -0.16868499 -0.6802402 -0.12324382 -0.59607524
000010 8b b8 c5 bd 81 ad aa be cb 2f 67 be 18 3d b8 bd
       -0.096543394 -0.33335498 -0.22576825 -0.08996028
000020 ef 19 c5 be 28 ce 61 bd f4 23 51 bf 14 80 e3 be
       -0.38496348 -0.055128247 -0.81695485 -0.44433653
000030 ff 75 cc be ea ad 05 bf df 2c 34 bf 87 7c 8f be
       -0.39933774 -0.52218497 -0.7038097 -0.28024694
000040 db d9 05 be 2a 56 b9 be 6b 79 9d bd 85 41 e9 bd
       -0.13071387 -0.3619855 -0.07689174 -0.1138945
000050 9a d6 36 be 0f ad 85 bd 9f de 07 be 56 82 04 bd
       -0.17855301 -0.06527149 -0.13268517 -0.03235086
000060 41 2c bb bd d3 cb b3 be e1 66 0b bd e9 9e 48 be
       -0.091393 -0.35116443 -0.03403366 -0.1959187
000070 cf ff 90 be d9 ef c2 bc 13 14 6f bd 98 4f 19 bf
       -0.28320166 -0.023796009 -0.058368754 -0.59887075

weight f4 [128, 32, 5, 5]
000000 ed ab c7 3b 67 2c 06 3e d2 39 a0 3d bf 5c 1c be
       0.006093493 0.13102876 0.07823528 -0.15269755
000010 c7 83 9f 3c 59 e5 aa bd 94 75 94 3c 3c 21 d3 3d
       0.019472016 -0.08344526 0.018122472 0.10309073
000020 30 04 59 3c 79 97 44 3e 80 ff af 3c 74 a2 12 be
       0.013245627 0.19198407 0.021484137 -0.14319783
000030 93 a5 e5 3d 17 1f c7 3d d1 e8 75 3e 3b eb 0c 3e
       0.112132214 0.09722727 0.24014594 0.13761608
000040 e1 b9 4d 3e b1 13 24 3e 3c 32 2f 3d 1d 71 5d 3d
       0.20090438 0.16023137 0.042772517 0.05406295
000050 7a 63 dc bd 1c a4 8f be 98 d8 67 3d a0 34 9c bc
       -0.10761161 -0.28054893 0.056603044 -0.019068062
000060 79 ad ad be a4 91 47 be 35 d7 05 be d4 09 a5 be
       -0.33921412 -0.19489151 -0.13070376 -0.3223406
000070 7e 57 a1 3e 97 ec 5f 3e 66 57 b8 3d 18 d3 33 3e
       0.31512064 0.21867596 0.09001045 0.17560995
000080 f4 33 11 be 7c a1 00 3e 02 bb 2c 3e fb 88 71 bc
       -0.14179975 0.12561601 0.16868213 -0.014742131
000090 1d 17 8e 3e 73 00 f7 3d 24 24 5c 3e c3 18 db 3c
       0.2775201 0.120606326 0.21498162 0.026745206
0000a0 b4 cb 4c bc e5 d7 2b 3e d4 c2 bc bb 97 e8 b1 3d
       -0.0124997385 0.16781576 -0.00576053 0.08686941
0000b0 f6 87 54 bd 5e a3 86 be 97 4f 23 bd 0e 3d 4a bd
       -0.051887475 -0.26296514 -0.039870825 -0.049374633
0000c0 ae 65 cf bb 80 6e f0 bd bc 03 21 bf c3 bd 91 be
       -0.00632926 -0.11739826 -0.62896323 -0.2846509
0000d0 ce 79 62 be 45 c6 64 be 98 4e 7d be b9 ad 33 be
       -0.22116777 -0.22341259 -0.24737012 -0.17546739
0000e0 c3 53 1c be f4 05 6b bc b6 62 f1 bc e7 ba 5d 3d
       -0.15266328 -0.014344681 -0.029466014 0.054133322
0000f0 ea 47 74 ba 39 0d 1a bd 91 34 15 be 85 5a 9b 3d
       -0.00093185774 -0.037610266 -0.14570834 0.075856246
000100 aa 31 4b bd cb 5d 14 bd 7f f7 c2 3a 0e b2 a1 bd
       -0.04960791 -0.03622226 0.0014874785 -0.07895289
000110 a6 6a 9f bd c3 54 5f be a7 d5 a8 be 79 07 01 bf
       -0.077840135 -0.21809678 -0.32975504 -0.5040203
000120 58 75 84 be 91 73 7c be e2 36 0f be 9d 74 59 3e
       -0.25870776 -0.2465346 -0.1398578 0.2123589
000130 ca c0 29 be 17 8e 91 be 2b 96 8c 3e d1 77 45 3e
       -0.1657745 -0.28428718 0.2745832 0.19283988
000140 60 6c 81 3e 76 cf d7 3c 2b e8 3e bb 20 ae ad ba
       0.25277996 0.026344042 -0.0029130082 -0.0013250746
000150 71 a2 59 bc c3 d9 c7 3d 49 6c 42 bc ea ad 5c bd
       -0.013283358 0.097583316 -0.0118666375 -0.053876795
000160 0a 22 c1 bd eb 20 a1 bd 97 4a be bc 59 e2 8a be
       -0.094303206 -0.07867607 -0.023228927 -0.27125815
000170 c5 38 16 bd 29 60 97 bd 96 43 21 bd 6e ce 7c 3d
       -0.036675233 -0.07391388 -0.039371096 0.061720304
000180 a1 84 9f bd 71 91 d0 bd 43 e4 67 bd 90 c0 23 be
       -0.07788969 -0.10183991 -0.05661417 -0.15991426
000190 4b bc 61 be db 32 1e be 28 4a f1 bc 2c ed 32 3d
       -0.22044484 -0.15449087 -0.029454306 0.043683216
0001a0 84 d4 a9 be f6 fe dd 3d ff 25 82 bc 72 83 df be
       -0.3316995 0.108396456 -0.015887259 -0.43654972
0001b0 04 43 9d be c4 96 0d 3c a7 e3 14 be c9 94 11 3e
       -0.3071519 0.008641902 -0.14539967 0.14216913
0001c0 5d fa 2e 3d de ef 8b 3d 4b 64 08 3e d8 5f ac 3d
       0.042719234 0.068328604 0.13319509 0.08416718
0001d0 46 2f 05 3e de d0 20 be 2f a8 4a 3e 5d 28 cc bd
       0.13006315 -0.15704677 0.1979072 -0.09968636
0001e0 23 29 80 3e 05 00 c0 bc c2 c1 0a 3d 07 e2 86 bd
       0.25031385 -0.02343751 0.033876188 -0.0658608
0001f0 66 f7 c7 3d f0 c8 2d bc c1 77 8b 3c 45 4f 37 bd
       0.097639844 -0.010606989 0.017024877 -0.04475333
000200 19 a4 42 3c f0 d7 99 be 1f bf 11 3d 8e 89 92 3d
       0.011879944 -0.3004756 0.035582658 0.07155143
000210 49 d2 0f be 59 3f 49 bc 0a 36 13 3e 53 9d 31 3e
       -0.14045061 -0.01228317 0.14376083 0.1734517
000220 c0 79 ff 3c 84 df b3 3d a8 6d ec 3d fd a2 67 3e
       0.031185985 0.087828666 0.11544353 0.22620769
000230 f1 55 3f be 09 f7 ca 3d 86 f4 b1 3d 99 bc 5b 3e
       -0.18685128 0.099103995 0.08689217 0.21458663
000240 73 a3 6b 3e 3b 90 38 3e 8e 2e 47 3e 93 5f 80 3c
       0.2301157 0.1802377 0.19451353 0.015670573
000250 12 ee 59 3e a7 d4 cf bc c7 26 ac bd 9a ce 1e bc
       0.21282223 -0.025369955 -0.08405834 -0.009692812
000260 c4 e3 eb 3d 64 3b 9c bb e2 59 b1 3d 5f 8f 2d be
       0.11518052 -0.004767822 0.08659722 -0.16949223
000270 6f 4a 37 be 52 99 ca 3c 76 3e be bd a5 46 98 3c
       -0.17899488 0.024731312 -0.09289257 0.018588373
000280 2f 0a b9 3d 7d bd 63 3e 45 82 dc bd 90 5f 1f bc
       0.090351455 0.22240253 -0.107670344 -0.009727374
000290 4b a0 20 bd 1d 34 79 be 39 e0 3f be ce 91 cb 3d
       -0.039215367 -0.24336286 -0.18737878 0.099399194
0002a0 be 79 3c 3d 54 63 53 bd 51 19 7d bd 6f 66 48 be
       0.04601454 -0.0516084 -0.06179172 -0.19570325
0002b0 ff d5 64 bd b9 45 9f 3c 32 d5 5c be 6c a3 93 be
       -0.055868145 0.019442426 -0.21565703 -0.28835618
0002c0 bf 2d 90 be 19 67 85 bc bc 78 55 bd 19 0a 1d 3e
       -0.28159901 -0.016284512 -0.052117094 0.15335883
0002d0 f0 8d 80 bd f5 c9 22 bd de 64 2c 3e ce 8b 99 3d
       -0.062770724 -0.039743382 0.16835353 0.07497369
0002e0 70 12 9b 3e 33 37 e1 3d d1 0b ac 3d 74 3f 11 3e
       0.30287504 0.109968565 0.08400691 0.14184362
0002f0 00 92 38 3e 3d cd a4 3c 70 4a 19 be d6 73 82 be
       0.18024445 0.020117396 -0.14969802 -0.25479
000300 c1 17 75 3d dc 16 2a bc d3 f6 22 3e 8f e3 25 be
       0.059837107 -0.010381427 0.15914468 -0.16200088
000310 9a 1e 20 3c a1 fb 28 3e 02 4e 7a 3e e8 6c 74 3e
       0.009772921 0.16502239 0.2444382 0.2386967
000320 28 e5 98 be 9f f1 4d bd 20 51 c8 be f0 5f ce bd
       -0.29862332 -0.050279256 -0.39124393 -0.100768924
000330 ed 22 05 bd c5 64 e0 3d 8e 6e 1c 3e b5 b5 b6 bd
       -0.03250401 0.1095672 0.15276548 -0.089213766
000340 5e af a2 be 0e 89 a4 3e 2b 83 82 be 30 dd 60 bd
       -0.3177442 0.32135814 -0.25490698 -0.05489844
000350 d8 4e 7e 3e bb 9c 75 3e 49 7f 8c 3e 68 58 87 be
       0.24834764 0.23985569 0.2744086 -0.26434636
000360 0f 0c 0b be 0d f5 29 be ef 11 bb 3d 6f e8 ca bc
       -0.13578819 -0.16597386 0.0913428 -0.024769036
000370 77 25 29 be 37 d9 36 be c4 3b 92 bd 7d 0d 69 be
       -0.16518198 -0.17856298 -0.07140306 -0.22759052
000380 96 01 90 3d f0 5c f1 bd 6f cc 3c 3e 06 bb 8c be
       0.070315525 -0.117853045 0.1843736 -0.27486438
000390 e4 bb e3 3d a6 6f f7 bd 9f e1 8e 3d 1d da bf bc
       0.11119822 -0.12081842 0.069766276 -0.023419434
0003a0 fc 5e 8e bd 9e b8 74 3d fa 1f 36 3e c8 11 53 3e
       -0.069517106 0.059746377 0.17785636 0.20612252
0003b0 be da d3 bd 07 fe 9e 3d 6e e3 0d 3e 31 79 31 3e
       -0.10344456 0.077632956 0.13856289 0.17331387
0003c0 fb 49 57 3e c6 70 b3 be db 41 21 3e 29 d0 fb 3b
       0.21024315 -0.35046977 0.15747778 0.0076847267
0003d0 94 6e 80 3d f9 ae 31 bd ba cb 86 3d 50 63 dd 3d
       0.06271091 -0.043379758 0.065818265 0.10809958
0003e0 d5 ce 86 3d ce f6 14 bd d2 98 74 be 9a 6a 49 be
       0.06582419 -0.036368184 -0.23886421 -0.19669572
0003f0 57 43 45 3d b5 14 99 3d ea 57 17 be c4 93 97 be
       0.048159923 0.07474653 -0.1477963 -0.29604924

bias f4 [128]
000000 db f7 98 bd 0d 2c 82 be 0b b0 0e 3e 65 fd a1 3d
       -0.0746915 -0.25424233 0.13934343 0.07909659
000010 3e 80 4a bd a5 eb cf bd 08 94 42 be 37 b2 2b be
       -0.049438708 -0.101523675 -0.19001782 -0.16767202
000020 26 2d 2e bd 66 6e 84 be b0 0a e8 3e 06 47 83 bc
       -0.042523526 -0.25865477 0.45320654 -0.016025078
000030 63 89 02 bc 7e 9f 37 3e c7 6b 4f 3e c8 df 02 bd
       -0.007967326 0.17931935 0.20255958 -0.031951696
000040 3b 4e e9 3c fd 57 c6 3c 1a ae a8 be 88 59 02 3e
       0.028479686 0.024211878 -0.3294533 0.12729466
000050 a5 9f f6 bd 1e f3 1a be 51 78 ae be 22 88 83 bd
       -0.120421685 -0.15131804 -0.3407617 -0.0642245
000060 b4 52 59 bd 62 bd 79 bd a1 2f b4 bc 91 76 64 bd
       -0.053057387 -0.060971625 -0.021995367 -0.055777136
000070 2a 63 81 be 6f 9c f4 3d 8b fd 8a bd d2 a3 dc bd
       -0.2527097 0.119439 -0.06786641 -0.10773434
000080 50 3d 23 3c 28 41 fb bd 1c e6 24 3e 59 2e 8f 3e
       0.0099633485 -0.12268287 0.16103405 0.27965048
000090 d0 e5 58 3e fa 24 c7 3d 91 26 3e bd 54 ee 1a be
       0.21181417 0.097238496 -0.0464235 -0.15129977
0000a0 b2 33 82 be 82 c1 a0 3d 2a 0e 69 3e 8f 4f cc 3d
       -0.25430065 0.07849409 0.2275931 0.09976112
0000b0 66 cd bb 3c 22 ac 06 be ba d7 b6 3c b1 fc 68 be
       0.02292509 -0.13151601 0.022319663 -0.22752644
0000c0 08 2b 41 be 64 e0 f6 bd 66 94 3a 3e 13 ad ff bc
       -0.18864071 -0.12054518 0.18220672 -0.031210458
0000d0 f3 b7 39 bd d3 1d 81 3d 14 ad 81 be 88 30 63 bc
       -0.045341443 0.06304517 -0.2532736 -0.013866551
0000e0 e4 81 ab 3d 5c ee 6f bd 01 f6 80 be ac ab ec bc
       0.08374384 -0.058576927 -0.25187686 -0.028890453
0000f0 2d b4 19 be 7f 40 29 be 38 cc 6a be d9 5f 90 3e
       -0.15010138 -0.1652851 -0.22929466 0.28198126
000100 f3 d7 d0 bd c0 d9 ce 3c 79 d4 b7 3c 44 27 18 3e
       -0.10197439 0.025250316 0.022440182 0.14858729
000110 65 6a 47 be 55 cc 77 be b1 2e 30 bc ea 85 8f bc
       -0.1947418 -0.2419904 -0.01075332 -0.01751991
000120 b2 05 a8 3d 25 b3 db bc be e6 af bc 85 9a 91 be
       0.08204211 -0.026818821 -0.021472331 -0.28438202
000130 f3 b3 8a 3c e4 e5 e1 bd f5 74 a9 3e f0 cf 3e bb
       0.01693151 -0.11030176 0.33097044 -0.002911564
000140 16 c9 3e bc 00 49 57 3d f1 a3 9f be 17 23 21 3e
       -0.011644622 0.052559853 -0.31179765 0.15736042
000150 9d dc 85 be 3c 15 fc bc 74 03 89 3e ac b3 b6 bc
       -0.26144877 -0.030771844 0.26760447 -0.022302471
000160 0e 28 89 3e 45 84 1d be 2d 11 4b be 1e 05 30 bd
       0.26788372 -0.15382488 -0.19830771 -0.04297363
000170 fc 19 ae 3e e6 dc 84 3e ff 6b 6a bd d0 65 15 be
       0.340042 0.25949782 -0.0572319 -0.1458962
000180 65 75 93 be 19 91 25 bd 24 60 c8 3c 8f 96 2f be
       -0.28800502 -0.04042158 0.024459906 -0.17147277
000190 d4 6b e9 bd 3d 68 5a 3e 41 e9 01 3d 35 45 2a 3e
       -0.1139752 0.21328826 0.03171659 0.16627963
0001a0 24 d6 37 be da b1 7f bd 66 b9 cd bc 6d d5 a4 be
       -0.17952782 -0.06242547 -0.025112819 -0.3219408
0001b0 b2 69 6c bd 09 58 be 3d 55 3d 29 bc aa c2 52 3d
       -0.057717986 0.09294135 -0.010329564 0.051455177
0001c0 48 e5 e1 bd b4 d0 2a bd 22 51 83 bd cb 34 58 be
       -0.1103006 -0.04170294 -0.06411959 -0.21113889
0001d0 5e 67 f8 bc 78 9b 1a be 43 fe 8e be 7f fc ae bd
       -0.030322727 -0.15098369 -0.2792836 -0.085442536
0001e0 60 a0 76 be 3d 4f ca 3c c4 48 52 be a6 5f 1d bc
       -0.24084616 0.024695987 -0.2053557 -0.009605324
0001f0 78 df 77 bd 44 35 31 3e 89 ef 2b be 29 97 01 be
       -0.06051585 0.17305475 -0.16790594 -0.1265532

weight f4 [47, 2048]
000000 36 8c b6 bd c0 c6 20 be 13 21 32 bd 8b 8a 8f 3e
       -0.08913462 -0.15700817 -0.043488573 0.28035387
000010 a7 39 61 bd b9 49 fa 3c 59 5f b2 3b c4 d0 e6 3d
       -0.054986622 0.030552732 0.005443495 0.11270288
000020 81 60 57 3e fb 00 93 be ca 45 9f bd 7d c4 9f be
       0.21032907 -0.28711686 -0.07776983 -0.31204596
000030 53 de 84 3e b0 5e 90 bd 77 d0 84 bb 26 ac bf bd
       0.2595087 -0.0704931 -0.0040531713 -0.093590066
000040 cd 8e 66 3e 7d 89 f5 3d ca 04 42 be ed 13 f1 bd
       0.22515412 0.119891144 -0.1894714 -0.11771379
000050 b2 57 31 3d b9 25 6c 3e c2 0f 6c 3e 2f 28 00 bd
       0.043296523 0.23061265 0.23052886 -0.031288322
000060 34 94 6e bd d9 ea 30 be 95 be 00 3f 08 9e 16 3c
       -0.058246806 -0.17277087 0.50290805 0.009192951
000070 6f 71 c4 3e 93 40 da 3d 40 eb da 3b 41 e0 40 be
       0.38367793 0.10656848 0.006680876 -0.18835546
000080 af aa 1b bd 7d 58 b9 bc 69 ee 0e bc a2 59 26 bd
       -0.038004573 -0.022625202 -0.008723834 -0.040612824
000090 9f 3f 7d be be a0 b3 bc 45 06 ba bd 8e 15 09 be
       -0.24731301 -0.021927234 -0.09083227 -0.13387129
0000a0 74 aa 08 3c c5 04 b5 be 42 6d f9 3d 2b a4 6b bd
       0.00834142 -0.353552 0.121790424 -0.05752961
0000b0 99 fb b7 3d 7b 83 87 be d8 26 a5 bd 66 73 c5 3d
       0.08983535 -0.264675 -0.080640495 0.09641151
0000c0 e7 a7 5b 3c 15 39 28 3e a6 5a 1d be 8a c0 81 3e
       0.01340673 0.16428025 -0.15366611 0.25342208
0000d0 62 7f 4c 3e e6 69 9e 3d fc 7f 1c 3e b1 0b 0c be
       0.19970468 0.07735042 0.15283197 -0.13676335
0000e0 bd 56 44 bd 11 99 c9 3c 19 e9 f8 bd 48 5e 56 be
       -0.047934283 0.02460912 -0.12153835 -0.20934403
0000f0 f4 61 a8 bd 99 a7 76 3e 6b 1c 21 be 8b 9e 17 bd
       -0.08221808 0.24087371 -0.15733497 -0.037016433
000100 18 87 0d 3d 9b 54 65 bc 5f 1c 80 bc 1a 74 8a 3b
       0.034552664 -0.013997222 -0.015638528 0.004225266
000110 ae e4 c2 3c b2 a6 1e bd 85 f2 68 3d 7d bb cb 3c
       0.023790684 -0.03873319 0.05687191 0.024869675
000120 2e 4d 21 3c ae 01 ba 3c f6 de 11 3d fd cb 4d 3d
       0.009845061 0.022705879 0.035613023 0.050243367
000130 8a 20 2a 3d fc 6f 49 3c a0 c7 22 bd 39 ea 3c bd
       0.041534938 0.012294766 -0.03974116 -0.04612181
000140 fc cd 20 bc 69 03 b2 3d e2 c8 2a 3e 1a fd 3e 3d
       -0.0098147355 0.08692057 0.16678193 0.046628095
000150 3d 57 4e be e9 cd 4e bd d1 6b ea bd fb 55 a9 bd
       -0.20150466 -0.05048934 -0.114463456 -0.082683526
000160 74 d8 b1 be 52 81 a5 3d d6 9a a3 3d 02 bb e9 3c
       -0.34735453 0.080813065 0.07988517 0.028531555
000170 73 fa 72 be 5e f0 61 3e 2d 8b 6c bd 85 26 b3 bd
       -0.23728351 0.22064349 -0.057749916 -0.087475814
000180 86 ca 00 be b8 50 62 bc a7 91 65 3e c1 f6 bb 3e
       -0.12577257 -0.01381319 0.22418843 0.36711696
000190 df d8 83 bd be 39 3f bd 78 bb f6 3c d2 08 2d bc
       -0.06437849 -0.046685927 0.030118689 -0.010561185
0001a0 e7 bd ac 3d 84 18 4f 3c 63 a5 30 3d be 49 ad bd
       0.084346585 0.012640122 0.043126475 -0.08461331
0001b0 4a 64 0a 3e 20 35 82 be 89 e8 01 be 9c 43 12 be
       0.1351482 -0.25431156 -0.12686361 -0.14283603
0001c0 ac 02 61 3d 93 22 f9 3d 03 f8 04 bc 4e 51 ff be
       0.05493419 0.12164798 -0.008115771 -0.49866718
0001d0 6a 4c f5 bd 51 c9 0f 3d 30 06 9f 3d 80 a1 48 be
       -0.119774655 0.0351041 0.07764852 -0.19592857
0001e0 61 78 57 bd f7 e2 3e 3e 76 53 2d bf 5b f1 e5 bd
       -0.052605037 0.18641268 -0.67705476 -0.112276755
0001f0 5e 31 89 be a1 5d 8b 3d a0 e1 47 be 91 da c3 3d
       -0.26795477 0.06804968 -0.19519663 0.095631726
000200 b0 55 22 3e df d4 f4 bc 8c c2 23 3e b8 2e 2c be
       0.15853 -0.029886661 0.15992182 -0.16814697
000210 29 2d 93 bd 46 32 e0 3d 85 0e 9f 3e 54 33 98 3d
       -0.07186348 0.10947089 0.31065765 0.07431665
000220 a0 74 15 bd 31 74 5f 3d a9 3c f6 bd 34 46 4a 3b
       -0.036488175 0.054554168 -0.12023289 0.0030864598
000230 72 b2 41 3c 7d 91 4c 3e b7 0e 9f be 83 f6 d9 bd
       0.01182233 0.19977374 -0.31065914 -0.106427215
000240 76 46 83 3d 0f 0f 08 3e ce 23 06 bd f0 e5 fe bc
       0.06409924 0.13286994 -0.03274899 -0.031115502
000250 b9 ed 53 3d d7 e6 82 be 81 92 b9 3e fd 77 a0 3e
       0.051740382 -0.25566742 0.36244586 0.31341544
000260 f8 08 7c 3e 8c 0b 54 3e 3e 8c 17 3e ba 33 7d 3e
       0.24612796 0.2070753 0.14799592 0.24726763
000270 52 f8 ad 3d b9 4c 71 be 8e 4d 1d 3e 9e 42 e5 bd
       0.08494629 -0.23564424 0.15361616 -0.11194347
000280 cc 2f bb bd c6 72 15 3e 9d 6e 95 be 94 1a 86 bd
       -0.09139976 0.14594564 -0.29185954 -0.06548038
000290 49 79 97 bd dc 38 9d 3d 93 dd 4c 3d 64 70 e7 3d
       -0.0739618 0.07676861 0.050015997 0.11300734
0002a0 61 34 a2 3e 74 c3 08 3e 65 4e 07 be 3b 57 3d 3d
       0.31680587 0.1335581 -0.13213499 0.046225768
0002b0 61 f1 a1 3e 05 5c 67 3e 63 3c 64 3d ff 63 59 3e
       0.3162947 0.22593696 0.05572165 0.21229552
0002c0 41 12 16 3d d5 08 c0 bc 1c fa aa bc db b3 67 bd
       0.036638502 -0.023441711 -0.020871215 -0.056568008
0002d0 dc 53 5c 3c 25 44 f8 bc df d7 2d 3d 18 5a d8 3c
       0.013447728 -0.030305931 0.0424422 0.026410148
0002e0 0e b5 0c bd f2 b8 ae 3c 34 ae 82 3d 96 91 c0 3c
       -0.034352355 0.021328423 0.06380883 0.02350692
0002f0 e8 df 33 bd 61 ad 8e bd bd ab 94 bd 03 5b 4b bd
       -0.043914706 -0.06966663 -0.07259319 -0.049647342
000300 0f 3b 92 bd 0d 5b a1 be e7 4d e9 be bc 66 f2 bc
       -0.07140171 -0.3151478 -0.45567247 -0.029590003
000310 20 1d 07 be f6 fa c4 be 7d 0c 1a 3d 73 73 b3 bd
       -0.13194704 -0.38472718 0.037609566 -0.087622546
000320 0c 0a 1c be 85 36 ec bd dc 46 a5 bd 09 53 5b b9
       -0.15238208 -0.11533836 -0.08070156 -0.000209164
000330 78 7f d7 bd e5 cc 09 be a1 b8 98 3e 1a 25 37 3e
       -0.105223596 -0.13457067 0.2982836 0.17885247
000340 cc 49 b4 bd ef 86 c3 3d 27 70 84 bd d1 ef ec bb
       -0.08803138 0.09547221 -0.06466704 -0.007230737
000350 34 9b ad be 78 7b 66 3e 0c df 90 3e 40 e1 7f 3d
       -0.33907473 0.22508037 0.2829517 0.062470675
000360 18 03 f2 3d 57 b2 71 be 16 8d 89 be 65 9a 15 3d
       0.11816996 -0.23603188 -0.26865453 0.036524195
000370 e8 ce b2 bc 42 b5 ff 3d 01 35 9a bb 00 3f 05 3e
       -0.021827176 0.12485744 -0.0047060256 0.13012314
000380 1b 32 b4 3d 8f eb 89 3b d1 ad 09 bd a1 74 17 bd
       0.08798619 0.004208989 -0.03361303 -0.03697646
000390 b4 9f 5e 3d f2 b5 03 3d e4 5d 82 3e 49 2c f3 bc
       0.054351524 0.03215594 0.25462258 -0.029684203
0003a0 16 2b 36 3e ea 27 58 be 3e ca d4 3d 00 63 7f 3d
       0.17789873 -0.21108976 0.10390137 0.062350273
0003b0 ee 1a 72 3e 3e 46 79 be 3c cf cb bd ec 17 b5 3c
       0.23643085 -0.24343202 -0.09951636 0.022106133
0003c0 a1 bc 2b 3e a8 88 16 3e c5 b0 98 3d ec 89 e5 bc
       0.16771175 0.14700568 0.07455591 -0.028019868
0003d0 9e 3e ac bd 56 db a4 bd 32 11 95 bd cd 5c 74 3d
       -0.08410381 -0.080496475 -0.0727867 0.059658814
0003e0 04 18 8e bd 32 3f c5 bd 15 c7 9b be 32 98 0c be
       -0.06938174 -0.09631194 -0.30425325 -0.13729933
0003f0 7b 13 55 be 7d 7e a1 bc 65 ac d5 bd 2b ab 53 3d
       -0.20808212 -0.019713635 -0.10433272 0.05167691

bias f4 [47]
000000 b5 e8 3f 3d 11 62 14 be b8 b4 60 be 43 38 6b 3c
       0.046852786 -0.14490534 -0.21943939 0.014356676
000010 73 ec b6 3e 2d cc d5 3d 88 c6 8b bd d4 d0 da bd
       0.3572727 0.10439334 -0.06824976 -0.10684362
000020 34 1f 64 3e 27 a5 42 3b d2 c9 db bc 37 59 18 be
       0.22277528 0.002970049 -0.026829634 -0.14877783
000030 43 e3 35 bc 3c 62 1d 3e 81 ec d9 bd eb 88 86 bd
       -0.011101547 0.15369505 -0.10640813 -0.06569084
000040 e9 75 09 3c 75 2f 4a bd 68 82 0d 3e fa 33 06 bd
       0.008389928 -0.049361665 0.13819277 -0.032764412
000050 f5 6f b9 bd 26 17 95 3e 4c b9 ba bd fd 3e 2e 3d
       -0.09054557 0.29119223 -0.09117374 0.04254054
000060 9c 99 67 bd 1c a1 63 bb a9 a0 f9 bc d6 17 3d bc
       -0.056542978 -0.003473348 -0.030472117 -0.011541327
000070 9f 5b 8e bd f7 69 f1 bd 80 91 3f 3e 04 80 ec 3c
       -0.06951069 -0.11787789 0.18707848 0.028869636
000080 d3 7f 95 bd f3 43 93 3e 42 e5 25 3e f7 23 cb bc
       -0.07299771 0.2876278 0.16200736 -0.024797423
000090 28 ca dc 3e 9f f3 de 3d a5 2f 63 3e 34 2b 8c 3d
       0.43122983 0.10886311 0.22186144 0.06844178
0000a0 72 47 0c 3f 20 df 85 3e 48 1c 8d bd 79 3c 9c 3e
       0.54796517 0.26146793 -0.0689016 0.30514887
0000b0 2e 79 84 3d 67 4a 15 3e 07 36 4c be
       0.06468426 0.14579163 -0.19942485

weight f4 [10, 47]
000000 d7 2f 83 3d 0f 43 2c 3e 05 23 e4 3d 24 2f 91 bd
       0.06405609 0.16822456 0.11139492 -0.070890695
000010 b8 b5 ef 3d a5 5e cb 3e 7d d4 8f be 32 1c 9c 3d
       0.11704582 0.39720646 -0.28091803 0.07622565
000020 e9 14 6d 3e c2 55 95 3e dc 06 0b 3e 5e ca 9c bd
       0.23152508 0.2916699 0.13576835 -0.07655786
000030 7b 64 a1 3e f8 bf 0c 3e ff d1 ad 3d b0 7a c7 bc
       0.31521973 0.13745105 0.08487319 -0.024350494
000040 f8 4d f9 3d 3e bd d3 be 8c 7c 35 bd ea 83 26 bd
       0.121730745 -0.41355318 -0.04430823 -0.040653147
000050 bc e7 a2 bd ec 89 95 3d 09 8a 91 3e ad e1 7f 3e
       -0.07954356 0.07301697 0.28425625 0.24988432
000060 fb da b7 3e 37 7a 23 3e df 0f 0e 3e 84 91 21 be
       0.35909256 0.1596459 0.13873242 -0.15778166
000070 28 6e 99 be 1b d5 5d 3d f2 e9 39 bd 17 db 64 be
       -0.29966855 0.05415831 -0.045389123 -0.22349201
000080 4a d3 5e 3c 7b fe 4e 3e c4 87 4c be 53 fd 82 3e
       0.01360018 0.20214264 -0.19973665 0.25583896
000090 2a 2a 9a be 96 b6 8e be 97 93 a2 bb 57 43 e1 3b
       -0.30110294 -0.27873677 -0.0049614417 0.0068744826
0000a0 d3 6a 34 bd 7a cf f8 be e4 23 ad bd e6 36 c3 3d
       -0.044047188 -0.48595792 -0.08454111 0.095319554
0000b0 8e 5f 1f be a6 91 18 3e 3d 32 bd be 80 ff d3 be
       -0.15563795 0.1489931 -0.3695239 -0.4140587
0000c0 bf ad f4 be 96 e8 c5 bc 36 58 28 bc 17 f6 8f be
       -0.47788808 -0.024158757 -0.010274937 -0.2811744
0000d0 12 9b 08 bf 72 fb 4e 3e 34 b5 ae 3e c1 52 f0 be
       -0.5336162 0.20213106 0.34122622 -0.46938136
0000e0 24 99 f5 bd 1f 18 80 be bc bb 80 3e 6e 32 ec bd
       -0.119921 -0.25018403 0.2514323 -0.11533056
0000f0 05 d0 aa be 9a 07 0b bd bf 28 c5 be c2 ae e1 bd
       -0.3336183 -0.033942796 -0.3850765 -0.110196605
000100 ae fe 17 3e 82 67 9a 3e 70 44 87 3c be 31 a1 3e
       0.14843246 0.30157095 0.016512126 0.31483263
000110 ae 54 b0 3e 58 27 bc 3e 8b bd 5a bc 78 21 3e be
       0.34439605 0.36748767 -0.013350855 -0.18567455
000120 92 ab 8d be 8a 09 9b 3e dc 17 19 be 5b 2d 54 bd
       -0.2766996 0.30280715 -0.14950508 -0.051801067
000130 4a 1a 81 3e 77 2b 5a be 98 48 67 3e a2 32 80 be
       0.2521537 -0.21305643 0.22586286 -0.2503863
000140 b4 6b e5 3e 80 81 88 be b6 ad 21 be 6f e1 89 3e
       0.44808733 -0.266613 -0.15788922 0.26929805
000150 a9 f4 bc 3b d5 dc 9b be 06 f1 4a 3e bd ed 78 3d
       0.0057664705 -0.3044192 0.19818506 0.0607736
000160 9a ba 0e 3e ce d7 7e 3d f0 5a 16 bf 46 f8 93 3d
       0.1393837 0.062217526 -0.5873251 0.07225089
000170 67 70 ed be e1 24 c0 be 3a 32 28 be 89 c0 64 3d
       -0.4637482 -0.37528136 -0.1642541 0.05584768
000180 13 4d 13 be 3e 0b a6 3e 6e 67 da 3d 03 9c 29 3e
       -0.1438487 0.32430452 0.10664259 0.1656342
000190 e0 49 95 be 05 40 d9 3d c2 29 21 3e 6c 22 39 3d
       -0.29157925 0.10607914 0.15738586 0.045198843
0001a0 e9 56 09 3d b0 7c 1f be fb c4 25 be bc 17 6e be
       0.03353015 -0.15574908 -0.16188423 -0.23251241
0001b0 70 78 2f bd d9 52 0f bf eb 86 58 be c4 e4 62 3e
       -0.042839468 -0.5598579 -0.21145217 0.2215758
0001c0 54 59 b0 be 5e 40 2a be 1b 4f 27 be c2 a8 79 3e
       -0.34443152 -0.16626117 -0.1633877 0.24380782
0001d0 98 47 04 3e eb 6a 6f 3e c4 48 34 be 19 99 c1 3c
       0.12917936 0.2338063 -0.17605883 0.023632573
0001e0 67 8f 58 be c5 51 92 3e 9d 8a 60 3e 2c 75 9d be
       -0.21148454 0.2857801 0.21927877 -0.30753458
0001f0 92 f1 f1 3e fd c2 bc be 2b cb 9d be 86 f2 a5 be
       0.47254616 -0.36867514 -0.30819067 -0.32411593
000200 a6 10 54 3e 41 8f 17 3e 6e d3 22 3e 5c 63 84 3e
       0.20709476 0.14800741 0.15900967 0.25857055
000210 3e 50 89 3e 42 e2 ae be 60 71 df 3d a3 9a c3 be
       0.26819032 -0.34156996 0.109102964 -0.38203916
000220 48 82 0e be 70 5a cb ba f1 dd 91 3e 81 93 f0 3d
       -0.13916886 -0.0015514623 0.2848964 0.11746884
000230 5a c6 39 be 49 3d 16 bf 94 b2 0f be 07 7f 4a be
       -0.18142071 -0.58687264 -0.14032966 -0.1977502
000240 42 07 a8 bc 7d 9c 70 3e 8b c8 1c 3c 5a 07 64 bd
       -0.020511273 0.23497196 0.009569298 -0.055671073
000250 00 95 12 3d 99 c6 5d bd 78 8c ec bd 72 c2 29 3e
       0.03578663 -0.054144476 -0.1155023 0.16578081
000260 aa f7 51 3e 91 bc 33 bb 6c 1f c8 3c 5d a1 98 be
       0.20504633 -0.0027425627 0.024429046 -0.2981061
000270 1d f6 2b bd 5e 0b 39 3e 87 58 b8 3a 1a e4 6b bd
       -0.04198276 0.18070742 0.0014064469 -0.05759058
000280 20 6c 11 3d fc 25 90 be 64 76 52 3e 99 87 0b bf
       0.035503507 -0.2815398 0.20552975 -0.5450378
000290 fa 9b 87 be 94 47 e4 bb eb 43 92 be 79 56 36 bd
       -0.26486188 -0.0069665406 -0.28567442 -0.04451606
0002a0 fe 3c 92 be 9a b4 10 be 6d 62 4a 3e 8d a7 f6 3e
       -0.28562158 -0.14131394 0.19764109 0.48174706
0002b0 75 4f 78 3e b9 7e a4 be d9 44 48 3e 3c ea cc bc
       0.2424906 -0.32127932 0.19557513 -0.025014035
0002c0 89 05 6f bd a3 09 b4 be 29 6e d9 be d0 33 c2 3e
       -0.058354888 -0.35163602 -0.42466858 0.37930155
0002d0 b7 fa d3 3d 3e 5f bf 3e 35 38 00 3e 15 96 5b be
       0.103505544 0.37377352 0.12521441 -0.2144397
0002e0 e4 e5 59 be 64 36 df bd 8e 42 ab 3e 47 9b 2b 3e
       -0.21279103 -0.10899046 0.33449215 0.16758452
0002f0 68 9a 23 3e db ff 31 be 21 25 0a bf 37 90 84 be
       0.1597687 -0.17382757 -0.53962904 -0.25891277
000300 4b dc 2e be 32 7b 48 be 71 1e 16 be 00 70 87 3a
       -0.17076223 -0.19578245 -0.1466005 0.0010333061
000310 83 fc b3 bd ef c6 73 be 93 79 18 3e 7a a1 a2 3d
       -0.08788397 -0.23806356 0.14890127 0.079409555
000320 d6 ba c4 be 86 74 9c 3e 88 08 5f be 27 9e e9 be
       -0.38423795 0.3055765 -0.21780598 -0.45628473
000330 63 74 72 3e 23 11 30 be 54 1f b1 be d5 80 45 be
       0.2367721 -0.17194037 -0.34594214 -0.19287427
000340 fb 8a f9 3c a5 78 af 3e e4 77 88 bd 7c 6c 48 3e
       0.030461779 0.34271732 -0.06663492 0.19572634
000350 9c d2 32 3e 3c b8 6b 3e 98 3b 46 3d d4 65 cb bd
       0.17463154 0.23019499 0.048396677 -0.099315315
000360 da 6a b9 3d 3c f0 a0 3d 2b 12 86 be 98 06 ac be
       0.090535834 0.07858321 -0.26185736 -0.3359878
000370 d4 97 8d 3e 67 91 7e be b4 bf 1e be cd ff 4f bd
       0.27654898 -0.24860154 -0.15502816 -0.05078106
000380 82 14 a7 3e 4e bd 98 3e 4a 81 d6 bd b6 f9 f0 bd
       0.32632834 0.29831928 -0.10473879 -0.117663786
000390 3f 5c 9e 3e 1a 1d 4b 3e f5 ab 46 3e 8c 8d c8 be
       0.30929753 0.1983532 0.19401534 -0.39170492
0003a0 9c 28 81 3e 5b 91 97 3e d5 12 d4 3d e4 08 93 be
       0.25226295 0.29603085 0.103551544 -0.2871772
0003b0 ed 90 92 3e 20 da a9 3e 9e 92 41 3c 15 33 02 3e
       0.28626195 0.3317423 0.011814741 0.12714799
0003c0 79 c1 94 be b3 25 b8 bd b6 32 8b be 8f df e2 be
       -0.29053858 -0.089915656 -0.27187127 -0.44311187
0003d0 d7 7b d2 ba 5c fc 4b 3e 2f d5 32 3e 57 50 39 be
       -0.0016058636 0.19920486 0.17464136 -0.18097053
0003e0 d8 2f 9e be b3 9a d1 3d 90 6f 68 3d 99 36 00 bf
       -0.30895877 0.10234585 0.05674702 -0.5008331
0003f0 6e 59 45 be e4 b7 2c 3e 64 72 5f be 89 28 00 3e
       -0.19272396 0.16867024 -0.2182098 0.12515463

bias f4 [10]
000000 d2 8f 73 3e 42 23 4e bd bb 91 13 3e 47 a9 9b 3e
       0.23785332 -0.050326593 0.1441106 0.30402586
000010 62 38 cc bd bf 67 3b be 18 1b 52 3e 51 9a 63 3e
       -0.09971692 -0.18301295 0.20518148 0.22226836
000020 05 27 69 3e 01 4d 21 be
       0.22768791 -0.15752031
